7767517
68 68
Input            conv2d_1_input           0 1 conv2d_1_input
MemoryData       dense_1/bias:0           0 1 dense_1/bias:0 0=128
MemoryData       dense_2/bias:0           0 1 dense_2/bias:0 0=32
MemoryData       dense_3/bias:0           0 1 dense_3/bias:0 0=2
Convolution      conv2d_1                 1 1 conv2d_1_input convolution_output16 0=32 1=3 11=3 2=1 12=1 3=2 13=2 4=0 14=0 15=1 16=1 5=1 6=864
ReLU             Relu10                   1 1 convolution_output16 conv2d_1/Relu:0
Permute          Transpose16              1 1 conv2d_1/Relu:0 conv2d_1/Relu:0_transposed 0=4
BatchNorm        batch_normalization_1    1 1 conv2d_1/Relu:0_transposed batch_norm_output_buffer8 0=75
Permute          Transpose17              1 1 batch_norm_output_buffer8 batch_normalization_1/cond/Merge:0 0=3
ConvolutionDepthWise separable_conv2d_10      1 1 batch_normalization_1/cond/Merge:0 convolution_output14 0=32 1=3 11=3 2=1 12=1 3=1 13=1 4=1 14=1 15=1 16=1 5=0 6=288 7=32
Convolution      separable_conv2d_11      1 1 convolution_output14 convolution_output15 0=64 1=1 11=1 2=1 12=1 3=1 13=1 5=1 6=2048
ReLU             Relu9                    1 1 convolution_output15 separable_conv2d_1/Relu:0
Permute          Transpose14              1 1 separable_conv2d_1/Relu:0 separable_conv2d_1/Relu:0_transposed 0=4
BatchNorm        batch_normalization_2    1 1 separable_conv2d_1/Relu:0_transposed batch_norm_output_buffer7 0=75
Permute          Transpose15              1 1 batch_norm_output_buffer7 batch_normalization_2/cond/Merge:0 0=3
ConvolutionDepthWise separable_conv2d_20      1 1 batch_normalization_2/cond/Merge:0 convolution_output12 0=64 1=1 11=1 2=1 12=1 3=2 13=2 4=0 14=0 15=0 16=0 5=0 6=64 7=64
Convolution      separable_conv2d_21      1 1 convolution_output12 convolution_output13 0=64 1=1 11=1 2=1 12=1 3=1 13=1 5=1 6=4096
ReLU             Relu8                    1 1 convolution_output13 separable_conv2d_2/Relu:0
Permute          Transpose12              1 1 separable_conv2d_2/Relu:0 separable_conv2d_2/Relu:0_transposed 0=4
BatchNorm        batch_normalization_3    1 1 separable_conv2d_2/Relu:0_transposed batch_norm_output_buffer6 0=38
Permute          Transpose13              1 1 batch_norm_output_buffer6 batch_normalization_3/cond/Merge:0 0=3
ConvolutionDepthWise separable_conv2d_30      1 1 batch_normalization_3/cond/Merge:0 convolution_output10 0=64 1=3 11=3 2=1 12=1 3=1 13=1 4=1 14=1 15=1 16=1 5=0 6=576 7=64
Convolution      separable_conv2d_31      1 1 convolution_output10 convolution_output11 0=128 1=1 11=1 2=1 12=1 3=1 13=1 5=1 6=8192
ReLU             Relu7                    1 1 convolution_output11 separable_conv2d_3/Relu:0
Permute          Transpose10              1 1 separable_conv2d_3/Relu:0 separable_conv2d_3/Relu:0_transposed 0=4
BatchNorm        batch_normalization_4    1 1 separable_conv2d_3/Relu:0_transposed batch_norm_output_buffer5 0=38
Permute          Transpose11              1 1 batch_norm_output_buffer5 batch_normalization_4/cond/Merge:0 0=3
ConvolutionDepthWise separable_conv2d_40      1 1 batch_normalization_4/cond/Merge:0 convolution_output8 0=128 1=1 11=1 2=1 12=1 3=2 13=2 4=0 14=0 15=0 16=0 5=0 6=128 7=128
Convolution      separable_conv2d_41      1 1 convolution_output8 convolution_output9 0=128 1=1 11=1 2=1 12=1 3=1 13=1 5=1 6=16384
ReLU             Relu6                    1 1 convolution_output9 separable_conv2d_4/Relu:0
Permute          Transpose8               1 1 separable_conv2d_4/Relu:0 separable_conv2d_4/Relu:0_transposed 0=4
BatchNorm        batch_normalization_5    1 1 separable_conv2d_4/Relu:0_transposed batch_norm_output_buffer4 0=19
Permute          Transpose9               1 1 batch_norm_output_buffer4 batch_normalization_5/cond/Merge:0 0=3
ConvolutionDepthWise separable_conv2d_50      1 1 batch_normalization_5/cond/Merge:0 convolution_output6 0=128 1=3 11=3 2=1 12=1 3=1 13=1 4=1 14=1 15=1 16=1 5=0 6=1152 7=128
Convolution      separable_conv2d_51      1 1 convolution_output6 convolution_output7 0=256 1=1 11=1 2=1 12=1 3=1 13=1 5=1 6=32768
ReLU             Relu5                    1 1 convolution_output7 separable_conv2d_5/Relu:0
Permute          Transpose6               1 1 separable_conv2d_5/Relu:0 separable_conv2d_5/Relu:0_transposed 0=4
BatchNorm        batch_normalization_6    1 1 separable_conv2d_5/Relu:0_transposed batch_norm_output_buffer3 0=19
Permute          Transpose7               1 1 batch_norm_output_buffer3 batch_normalization_6/cond/Merge:0 0=3
ConvolutionDepthWise separable_conv2d_60      1 1 batch_normalization_6/cond/Merge:0 convolution_output4 0=256 1=1 11=1 2=1 12=1 3=2 13=2 4=0 14=0 15=0 16=0 5=0 6=256 7=256
Convolution      separable_conv2d_61      1 1 convolution_output4 convolution_output5 0=256 1=1 11=1 2=1 12=1 3=1 13=1 5=1 6=65536
ReLU             Relu4                    1 1 convolution_output5 separable_conv2d_6/Relu:0
Permute          Transpose4               1 1 separable_conv2d_6/Relu:0 separable_conv2d_6/Relu:0_transposed 0=4
BatchNorm        batch_normalization_7    1 1 separable_conv2d_6/Relu:0_transposed batch_norm_output_buffer2 0=10
Permute          Transpose5               1 1 batch_norm_output_buffer2 batch_normalization_7/cond/Merge:0 0=3
ConvolutionDepthWise separable_conv2d_70      1 1 batch_normalization_7/cond/Merge:0 convolution_output2 0=256 1=3 11=3 2=1 12=1 3=1 13=1 4=1 14=1 15=1 16=1 5=0 6=2304 7=256
Convolution      separable_conv2d_71      1 1 convolution_output2 convolution_output3 0=512 1=1 11=1 2=1 12=1 3=1 13=1 5=1 6=131072
ReLU             Relu3                    1 1 convolution_output3 separable_conv2d_7/Relu:0
Permute          Transpose2               1 1 separable_conv2d_7/Relu:0 separable_conv2d_7/Relu:0_transposed 0=4
BatchNorm        batch_normalization_8    1 1 separable_conv2d_7/Relu:0_transposed batch_norm_output_buffer1 0=10
Permute          Transpose3               1 1 batch_norm_output_buffer1 batch_normalization_8/cond/Merge:0 0=3
ConvolutionDepthWise separable_conv2d_80      1 1 batch_normalization_8/cond/Merge:0 convolution_output 0=512 1=1 11=1 2=1 12=1 3=2 13=2 4=0 14=0 15=0 16=0 5=0 6=512 7=512
Convolution      separable_conv2d_81      1 1 convolution_output convolution_output1 0=512 1=1 11=1 2=1 12=1 3=1 13=1 5=1 6=262144
ReLU             Relu2                    1 1 convolution_output1 separable_conv2d_8/Relu:0
Permute          Transpose                1 1 separable_conv2d_8/Relu:0 separable_conv2d_8/Relu:0_transposed 0=4
BatchNorm        batch_normalization_9    1 1 separable_conv2d_8/Relu:0_transposed batch_norm_output_buffer 0=5
Permute          Transpose1               1 1 batch_norm_output_buffer batch_normalization_9/cond/Merge:0 0=3
Pooling          batch_normalization_9/cond/Merge:0_pooling 1 1 batch_normalization_9/cond/Merge:0 batch_normalization_9/cond/Merge:0_pooling0 0=1 1=2 11=2 2=2 12=2 5=1 6=0
Flatten          flatten_1                1 1 batch_normalization_9/cond/Merge:0_pooling0 flatten_1/Reshape:0
InnerProduct     dense_1                  1 1 flatten_1/Reshape:0 dense_10 0=128 1=0 2=131072
BinaryOp         Add2                     2 1 dense_10 dense_1/bias:0 biased_tensor_name2 0=0
ReLU             Relu1                    1 1 biased_tensor_name2 activation_1/Relu:0
InnerProduct     dense_2                  1 1 activation_1/Relu:0 dense_20 0=32 1=0 2=4096
BinaryOp         Add1                     2 1 dense_20 dense_2/bias:0 biased_tensor_name1 0=0
ReLU             Relu                     1 1 biased_tensor_name1 activation_2/Relu:0
InnerProduct     dense_3                  1 1 activation_2/Relu:0 dense_30 0=2 1=0 2=64
BinaryOp         Add                      2 1 dense_30 dense_3/bias:0 biased_tensor_name 0=0
Softmax          Softmax                  1 1 biased_tensor_name dense_3 0=-2 1=1
